…
/","height":1020},"outputId":"a9ff5f83-5e9d-49a4-c45d-1d461d8b29b0","executionInfo":{"status":"ok","timestamp":1538691917214,"user_tz":420,"elapsed":300,"user":{"displayName":"Adrian Mai","photoUrl":"","userId":"03385859993315629030"}}},"cell_type":"code","source":["ShapeRegc_Model.summary()"],"execution_count":103,"outputs":[{"output_type":"stream","text":["_________________________________________________________________\n","Layer (type)                 Output Shape              Param #   \n","=================================================================\n","input_12 (InputLayer)        (None, 64, 64, 3)         0         \n","_________________________________________________________________\n","zero_padding2d_20 (ZeroPaddi (None, 70, 70, 3)         0         \n","_________________________________________________________________\n","conv0 (Conv2D)               (None, 64, 64, 32)        4736      \n","_________________________________________________________________\n","bn0 (BatchNormalization)     (None, 64, 64, 32)        128       \n","_________________________________________________________________\n","activation_60 (Activation)   (None, 64, 64, 32)        0         \n","_________________________________________________________________\n","max_pool (MaxPooling2D)      (None, 32, 32, 32)        0         \n","_________________________________________________________________\n","zero_padding2d_21 (ZeroPaddi (None, 38, 38, 32)        0         \n","_________________________________________________________________\n","conv1 (Conv2D)               (None, 34, 34, 64)        51264     \n","_________________________________________________________________\n","bn1 (BatchNormalization)     (None, 34, 34, 64)        256       \n","_________________________________________________________________\n","activation_61 (Activation)   (None, 34, 34, 64)        0         \n","_________________________________________________________________\n","max_pool_1 (MaxPooling2D)    (None, 17, 17, 64)        0         \n","_________________________________________________________________\n","conv2 (Conv2D)               (None, 12, 12, 128)       295040    \n","_________________________________________________________________\n","bn2 (BatchNormalization)     (None, 12, 12, 128)       512       \n","_________________________________________________________________\n","activation_62 (Activation)   (None, 12, 12, 128)       0         \n","_________________________________________________________________\n","conv3 (Conv2D)               (None, 9, 9, 128)         262272    \n","_________________________________________________________________\n","bn3 (BatchNormalization)     (None, 9, 9, 128)         512       \n","_________________________________________________________________\n","activation_63 (Activation)   (None, 9, 9, 128)         0         \n","_________________________________________________________________\n","conv4 (Conv2D)               (None, 9, 9, 256)         33024     \n","_________________________________________________________________\n","bn4 (BatchNormalization)     (None, 9, 9, 256)         1024      \n","_________________________________________________________________\n","activation_64 (Activation)   (None, 9, 9, 256)         0         \n","_________________________________________________________________\n","max_pool_3 (MaxPooling2D)    (None, 4, 4, 256)         0         \n","_________________________________________________________________\n","conv5 (Conv2D)               (None, 2, 2, 512)         1180160   \n","_________________________________________________________________\n","bn5 (BatchNormalization)     (None, 2, 2, 512)         2048      \n","_________________________________________________________________\n","activation_65 (Activation)   (None, 2, 2, 512)         0         \n","_________________________________________________________________\n","flatten_11 (Flatten)         (None, 2048)              0         \n","_________________________________________________________________\n","dense_11 (Dense)             (None, 3)                 6147      \n","=================================================================\n","Total params: 1,837,123\n","Trainable params: 1,834,883\n","Non-trainable params: 2,240\n","_________________________________________________________________\n"],"name":"stdout"}]},{"metadata":{"id":"3FQ0SGm1_ovE","colab_type":"code","colab":{}},"cell_type":"code","source":["def yolo_loss(y_true, y_predicted):\n","   
…
